app/src/main/assets/model_float32.tflite (tflite, 634636 bytes, 53 tensors)

arith.constant f4 [15, 256]
000000 7d c0 bf bd 0e 60 6a 3d 2b b7 0d 3e e2 31 0c be
       -0.09362886 0.05722051 0.13839404 -0.13690904
000010 97 7f 8d 3d 72 a5 a2 3b 0d 04 00 3e ef b8 1c be
       0.069091015 0.0049635703 0.12501545 -0.15304922
000020 be 27 bc bc 72 7f 08 3e 84 1f 11 be a2 f4 20 bd
       -0.02296817 0.13329867 -0.14172179 -0.0392958
000030 2c 32 fe bd 47 3b 0f 3e b0 c7 13 be 53 d9 35 bd
       -0.12411913 0.13987456 -0.14431643 -0.04439671
000040 55 b7 e2 3d 2b 48 06 3e ab 72 1e bd 2f a6 0e be
       0.11070124 0.13113467 -0.038683575 -0.13930582
000050 34 18 54 3d 6a 25 b0 bd 41 60 1d be 83 ca 0b be
       0.051780894 -0.08600886 -0.15368749 -0.13651471
000060 ca 51 f0 3b 9e 8b a9 3d 51 e7 ac 3d 67 0e c8 bd
       0.0073339688 0.08278583 0.084425576 -0.09768372
000070 40 9c 22 bd 0c 60 c0 bd 8e be 05 3e a6 16 b7 3d
       -0.039699793 -0.093933195 0.13060972 0.08939867
000080 10 02 12 be 0a b7 44 bd d2 63 ea bd 84 a0 63 bd
       -0.142586 -0.048026122 -0.114448205 -0.055573
000090 6a e9 b0 3d 11 23 ae bc 85 bf 33 bc 7c c0 55 3d
       0.0863827 -0.021256955 -0.010970955 0.05218552
0000a0 f5 38 86 3d fc 18 ef bd 7c a2 b0 bc f3 c0 8b 3d
       0.065538324 -0.11674687 -0.021561854 0.068239115
0000b0 a7 49 26 be 47 f2 52 be 25 5b f2 bd b4 75 fc bd
       -0.16239034 -0.20600234 -0.11833791 -0.123271376
0000c0 56 7e 1e be 5c 1e 6b 3d e5 db b5 bd ec e3 49 be
       -0.15477881 0.057402 -0.08879832 -0.19715852
0000d0 ae c9 3d bd 74 3e d3 3d e9 2c 6d bc 55 77 04 3e
       -0.046334915 0.10314646 -0.014476039 0.12936147
0000e0 04 e3 16 3e 23 01 0b be 81 5f e0 bd ff 7a d4 3c
       0.14735037 -0.13574652 -0.10955716 0.025937555
0000f0 14 1c 3f bd 37 fd 77 bd 40 f6 f5 bd 86 4f d8 bd
       -0.046657637 -0.06054422 -0.12009859 -0.10562043
000100 81 c0 b2 3d e1 9c e2 bd a8 ff 87 3d 01 0f 8e bd
       0.087281235 -0.110650785 0.066405594 -0.069364555
000110 29 0a 01 3c 1b ff 77 3d ca 09 18 bc f7 6e 41 bc
       0.0078759575 0.060546022 -0.009279678 -0.011806241
000120 a2 e6 e5 3d e8 98 ae 3c 6e 3c c0 bb 87 fd c6 3d
       0.1122563 0.021313146 -0.005866579 0.09716325
000130 44 da 98 3d d6 6a ee bd 2a 33 ca bd ea fe a1 3d
       0.07463506 -0.11641471 -0.0987304 0.07909949
000140 b5 fd 97 bd 3c e1 92 bd a9 4a a2 bd f8 dc 0c be
       -0.07421438 -0.07171866 -0.079243965 -0.13756168
000150 85 db 2b bb 38 37 3d bc 30 42 d5 3d b7 63 38 3d
       -0.0026223373 -0.01154881 0.10413015 0.04501697
000160 45 8e 22 bd d5 fd b6 bd f5 12 96 bd 70 6e 76 3c
       -0.03968646 -0.08935133 -0.073278345 0.015040979
000170 bd a8 0b 3e ef 9d e5 3c f9 82 02 be 82 b4 9c bd
       0.13638587 0.02802941 -0.12745275 -0.07651617
000180 a5 c3 0a be 18 1b 09 3e 34 12 1b be db 2f 29 3e
       -0.13551195 0.13389242 -0.15143663 0.16522162
000190 73 12 24 be 21 cd cd bd 0f 23 9e bc 2d 33 27 3d
       -0.16022663 -0.10048891 -0.019303827 0.04082029
0001a0 db 54 34 be cb bd 47 bd 3e ba 04 3d b4 a4 92 3d
       -0.17610495 -0.048764985 0.032404177 0.07160321
0001b0 0d ba ea bc 2f 42 21 be 66 29 9a bd 80 b8 11 3e
       -0.028653169 -0.15747903 -0.075274274 0.14230537
0001c0 01 4d fe 3c 4f ce 8e 3c c3 6d 9a 3d 55 e8 8a 3d
       0.031042578 0.01743236 0.07540467 0.06782595
0001d0 11 a7 01 3e 73 4b 97 3d a0 a2 28 be ac 45 40 be
       0.12661387 0.07387438 -0.16468287 -0.18776578
0001e0 66 aa e0 3d 52 40 c5 3c 61 c9 29 be 67 77 0f 3e
       0.10970001 0.024078522 -0.16580726 0.14010392
0001f0 2a 56 08 bc 0e 1d 05 3e a3 9c 2b be 24 87 81 bd
       -0.008321324 0.12999365 -0.16758971 -0.06324604
000200 ff 86 c1 3c be aa 9c bd ae f0 88 bd 8e 59 e1 bc
       0.023623941 -0.07649754 -0.06686531 -0.027508523
000210 7b e8 24 3d 26 6d 69 bd 52 c4 f7 bd 04 f9 e6 3d
       0.040260773 -0.056988858 -0.12097992 0.11277965
000220 37 66 26 3e 10 2e d3 3d 64 3d 41 bd 93 40 c4 bb
       0.1624993 0.1031152 -0.047177687 -0.005989143
000230 9b b4 ad bd ba f4 92 3d 97 6b b4 bd e2 ed 23 be
       -0.084817134 0.07175584 -0.08809584 -0.16008714
000240 0f 72 89 bd 28 8e 71 bd 05 c4 61 bc 03 da 7f bd
       -0.06711208 -0.05897346 -0.013779645 -0.06246377
000250 63 22 c9 bd 23 e7 e8 3d 70 b9 08 be 2c 24 a7 3d
       -0.09821012 0.11372211 -0.13351989 0.08161196
000260 19 fb 7d bd c6 5d ab 3d e2 9a 66 3d 8b c7 c3 3d
       -0.062007044 0.08367495 0.05630005 0.09559544
000270 e0 7a c2 bd b8 0a e5 3d fe 49 11 be 68 5b f6 bc
       -0.09496093 0.11183685 -0.14188382 -0.030072883
000280 77 f1 12 3d f2 75 04 be 97 89 f1 3d 3e 1c 05 3e
       0.03587481 -0.12935618 0.11793821 0.12999055
000290 97 4a 99 3a 63 f2 32 3d 72 d2 2f be 06 50 e3 3c
       0.0011695203 0.04368819 -0.17170122 0.02774812
0002a0 19 7c f6 bd 4d 8f e2 3c f2 b2 8e 3b e1 ff 3d be
       -0.120353885 0.027656222 0.004354828 -0.18554641
0002b0 45 7f d0 3d b0 a3 44 be cf d2 2e 3e 1f a7 4c be
       0.10180525 -0.19203067 0.17072605 -0.19985627
0002c0 3d 66 ac bd 75 6a d7 3d 94 6e cb 3c 69 a7 b3 bd
       -0.08417938 0.10518352 0.024833001 -0.08772165
0002d0 8d a7 9a 3d 60 ef 0b be a6 a0 38 bc 96 56 31 be
       0.07551489 -0.13665533 -0.01126877 -0.17318186
0002e0 51 81 9c bc 42 95 f4 bb bb ca 10 3e 31 d9 8f 3d
       -0.019104632 -0.007464082 0.14139836 0.07023848
0002f0 d0 51 08 bd f3 e9 74 3d 28 13 d9 3d a0 dc d1 3c
       -0.033281147 0.059793424 0.10599357 0.025617898
000300 35 d9 0a 3e 0b 25 7e bd 91 a5 18 be ba 47 c3 3d
       0.1355942 -0.062047046 -0.14906909 0.09535165
000310 fd 1e f7 bd 0a 58 a1 39 f5 43 2d 3d 9f c3 4b 3d
       -0.120664574 0.00030773907 0.042301137 0.049747106
000320 22 a8 a8 3d 0a f6 08 3e 56 75 93 3c 7d 0c d2 bd
       0.08235194 0.13375106 0.018000286 -0.10256288
000330 76 f3 21 be f5 f9 09 be 07 be 7c bd 39 94 68 3a
       -0.15815529 -0.13474257 -0.06170466 0.00088721846
000340 82 cb b3 3d 79 58 fb bb dd ed 14 3d cd 89 0e be
       0.087790504 -0.007670459 0.036359657 -0.13919754
000350 5a d2 ce bd 57 e1 ba 3d 83 c3 2d 3d 21 00 e8 bd
       -0.10098715 0.091250114 0.042422783 -0.113281496
000360 58 ad 69 3c c5 bd 18 be 89 2c 05 be 4f 59 9e 3c
       0.01426252 -0.14916141 -0.1300527 0.019329695
000370 58 e4 c5 3d ed 19 93 bd c0 73 a4 3c 0e 54 11 be
       0.09662694 -0.07182679 0.020074725 -0.1419222
000380 33 9a 83 bd 09 17 bf 3c 86 1d e4 3d 32 cf b7 3d
       -0.064258955 0.023326414 0.11138444 0.08975066
000390 11 b8 42 bd 9d f9 98 bd 3b 88 cd 3d 9a c3 1f 3e
       -0.04753882 -0.07469485 0.100357495 0.1560196
0003a0 fb e7 72 bd d1 71 a1 3d 17 d4 77 bd 86 88 3b be
       -0.059303265 0.07883037 -0.060505 -0.18313798
0003b0 15 3a bc 3d b6 c7 76 3c 1a 3a 4d be e5 8e f4 3d
       0.09190766 0.015062263 -0.20041695 0.119413175
0003c0 34 a0 9e 3d 48 8c cf bd ef c0 af bd c4 49 2f 3d
       0.077454 -0.101341784 -0.08581721 0.042794958
0003d0 0a d4 85 bd c7 21 a4 bc 44 50 36 bd df 53 4a 3d
       -0.06534584 -0.020035638 -0.04451014 0.049396392
0003e0 79 38 53 be 2a 3a 99 3d d2 c5 d3 3d 0c ce f5 3d
       -0.20627011 0.07481797 0.103404656 0.12002191
0003f0 79 b9 f2 bd de 69 1f 3e 5f 58 03 be 6e da 1c 3c
       -0.11851782 0.15567729 -0.1282668 0.009573562

arith.constant1 f2 [256, 32]
000000 5a a5 8d af b2 a5 f7 9a f7 ab a7 0f dc 2f 25 94
       -0.0209 -0.118 -0.02225 -0.0034 -0.06223 0.000467 0.1228 -0.001012
000010 e7 a9 12 af 2a af 1f 31 cd 2d a8 2d 0d b1 4b aa
       -0.0461 -0.1105 -0.11194 0.16 0.09064 0.0884 -0.1578 -0.04916
000020 70 28 d2 2e bc a8 e7 a6 d7 2e b6 ae 0e 2f d5 ae
       0.03467 0.10657 -0.037 -0.02696 0.1069 -0.10486 0.1102 -0.10675
000030 14 a6 a1 25 59 31 b1 ad 14 a6 2a 9c 6e 29 47 b0
       -0.02374 0.02199 0.1671 -0.0889 -0.02374 -0.004066 0.04242 -0.1337
000040 e2 ac f4 b0 90 2f 6f b1 c1 23 25 aa 55 2e f6 15
       -0.0763 -0.1548 0.11816 -0.1698 0.015144 -0.048 0.09894 0.001455
000050 7d ae 07 b0 c9 28 65 2b fa a6 a4 26 36 b2 12 2f
       -0.1014 -0.1259 0.03738 0.05777 -0.02725 0.02594 -0.1941 0.1105
000060 e4 ab f1 ad 13 30 ad b1 18 2a 6a 30 df 19 a1 2e
       -0.06165 -0.09283 0.1273 -0.1774 0.0476 0.138 0.002867 0.1036
000070 0f ad 8c a2 e8 ab 74 2a 0e b0 84 30 4d 2b 85 2a
       -0.07904 -0.01279 -0.06177 0.0504 -0.1267 0.1411 0.05704 0.05093
000080 b1 26 7a a6 aa 2e 1a ae 06 2d fc ae 40 9c 0d a8
       0.02614 -0.0253 0.1041 -0.09534 0.0785 -0.10913 -0.00415 -0.03165
000090 82 a1 b6 2a 59 b1 a1 2b 19 33 2f ac c8 af 80 b1
       -0.01076 0.05243 -0.1671 0.0596 0.2218 -0.06537 -0.1216 -0.1719
0000a0 58 26 f8 a1 91 30 3c a2 8d 29 ef b0 53 a0 37 2d
       0.02478 -0.01166 0.1427 -0.01218 0.04337 -0.1542 -0.008446 0.0815
0000b0 f8 a0 19 b4 6c a9 f6 a9 76 ac 99 26 f5 a6 8d a8
       -0.009705 -0.256 -0.04236 -0.04657 -0.0697 0.02577 -0.02718 -0.03555
0000c0 b5 31 5e aa 03 31 bb a1 a9 21 c7 30 09 2b 62 2c
       0.1783 -0.04974 0.1566 -0.01119 0.011055 0.1493 0.05496 0.0685
0000d0 c9 32 95 2c cf b0 09 1f 03 99 ec ab 2b 31 28 2a
       0.212 0.0716 -0.1503 0.00687 -0.002447 -0.0619 0.1615 0.0481
0000e0 fa 31 f9 b1 3f aa 31 2a 1c 30 fc b0 62 2d 9e 2f
       0.1868 -0.1866 -0.0488 0.04837 0.1284 -0.1558 0.0841 0.119
0000f0 67 2e 50 b1 68 31 56 af b0 aa 6c af 3e a8 0c 2c
       0.10004 -0.166 0.169 -0.1146 -0.05225 -0.11597 -0.03314 0.06323
000100 6c 1f 02 a4 d6 ae 03 af 69 2a 51 2f 10 2d 25 9c
       0.007248 -0.01566 -0.1068 -0.10956 0.05008 0.1143 0.0791 -0.004047
000110 e0 ac 2c a9 cd ac 78 aa 9d 31 39 b1 03 b1 5c 1a
       -0.0762 -0.0404 -0.075 -0.05054 0.1754 -0.1632 -0.1566 0.003105
000120 c3 2c de ad 11 aa 17 2e 27 a9 a1 29 bb ad e6 ac
       0.0744 -0.0917 -0.0474 0.09515 -0.04025 0.04398 -0.08954 -0.07654
000130 63 2b 43 31 d0 ae e5 25 3a 2a 8c 20 84 b0 07 b1
       0.0577 0.1644 -0.10645 0.02303 0.04865 0.00888 -0.1411 -0.1571
000140 23 2b a5 b2 83 2a c3 aa cd ac 16 2b 82 2e dd 25
       0.05576 -0.2076 0.05087 -0.05283 -0.075 0.05536 0.1017 0.0229
000150 0f ae e6 af 77 b0 89 2f 19 33 01 b1 cb 2a d2 2d
       -0.09467 -0.1234 -0.1395 0.11774 0.2218 -0.1564 0.05307 0.09094
000160 65 99 88 2c eb a6 ea af 10 2e d4 2d f6 2d e0 b0
       -0.002634 0.0708 -0.02702 -0.12366 0.0947 0.09106 0.09314 -0.1523
000170 24 ad 3c ae ac ab 61 b0 92 31 2b af 18 2d c6 28
       -0.0803 -0.0974 -0.05994 -0.1368 0.1741 -0.112 0.0796 0.0373
000180 8b 29 a3 2a cf 26 32 28 fd 2c 7a 2f 2f 2b 89 ad
       0.0433 0.05185 0.0266 0.03278 0.07794 0.1168 0.05612 -0.0865
000190 b0 25 68 2c 25 30 2c 27 c1 2c 84 b3 94 30 1d aa
       0.02222 0.06885 0.1295 0.02802 0.0743 -0.2349 0.1431 -0.04776
0001a0 70 9c bf 2e 53 ab ac ac 7a ac 4d 2e 3f 31 57 b1
       -0.004333 0.1054 -0.05722 -0.073 -0.06995 0.09845 0.164 -0.1669
0001b0 0b 25 86 32 62 b1 31 b1 60 ae 88 a9 58 a8 10 b1
       0.0197 0.2039 -0.1682 -0.1622 -0.0996 -0.0432 -0.03394 -0.1582
0001c0 44 28 32 a4 20 a2 2e b2 c4 28 29 30 53 b2 15 a1
       0.03333 -0.01639 -0.01196 -0.1931 0.03723 0.13 -0.1976 -0.009926
0001d0 2a 21 2a 32 54 ae 96 2e 41 26 e0 1f 6e ac 6e a9
       0.010086 0.1926 -0.0989 0.1029 0.02443 0.00769 -0.0692 -0.04242
0001e0 55 b0 af 28 0a 34 26 b2 c4 b1 06 af a0 a9 14 af
       -0.1354 0.0366 0.2524 -0.1921 -0.1802 -0.10974 -0.04395 -0.1106
0001f0 a5 2d 23 26 cf 28 e2 2a 2b b1 a0 b1 8d ad fa af
       0.0882 0.02397 0.03757 0.05377 -0.1615 -0.1758 -0.08673 -0.12463

arith.constant2 f2 [32, 256]
000000 08 af 83 2f 1d ab 39 b1 49 2d 4a ae d4 30 83 2f
       -0.10986 0.1174 -0.05557 -0.1632 0.0826 -0.09827 0.1509 0.1174
000010 5b 2f 0e 2d 4b b0 e1 21 88 af 91 25 2b 2c 29 20
       0.1149 0.079 -0.1342 0.01148 -0.1177 0.02174 0.0651 0.008125
000020 b9 2c e8 a9 05 20 f8 15 a7 b1 72 30 ee 28 d6 2f
       0.0738 -0.04614 0.00785 0.001457 -0.1766 0.1389 0.0385 0.12244
000030 26 2f f9 9f 3d b0 4d 95 ff 30 98 22 18 b0 f9 ad
       0.1117 -0.007786 -0.1324 -0.001294 0.1561 0.01288 -0.1279 -0.0933
000040 73 ac 17 b1 2a 21 78 b1 13 b0 2c ad 65 a9 6e 29
       -0.0695 -0.159 0.010086 -0.1709 -0.1273 -0.0808 -0.04214 0.04242
000050 2c 14 09 ae fd 27 94 b0 64 2d e6 af 43 b0 20 2c
       0.001019 -0.0943 0.0312 -0.1431 0.0842 -0.1234 -0.1332 0.06445
000060 5c 9c 11 b0 b6 25 35 1d 4a b2 04 a8 06 b1 ab 2c
       -0.004257 -0.1271 0.02231 0.005085 -0.1965 -0.03137 -0.157 0.07294
000070 78 b1 c1 a7 5c 2b 3b 23 6b 29 34 ad 20 ad 84 b2
       -0.1709 -0.03029 0.0575 0.01412 0.04233 -0.0813 -0.0801 -0.2036
000080 23 af dd b1 53 31 b1 ad 6a a5 66 2c 3a 2a 34 ab
       -0.1115 -0.1832 0.1664 -0.0889 -0.02115 0.0687 0.04865 -0.05627
000090 22 af f5 a5 7c 2e ec b1 d6 ac 54 30 50 11 d8 ab
       -0.11145 -0.02327 0.1013 -0.185 -0.07556 0.1353 0.0006485 -0.06128
0000a0 09 ad 5b ab d7 2a 8e 2e 4a ae b9 28 10 a8 b6 31
       -0.0787 -0.05746 0.05344 0.1024 -0.09827 0.0369 -0.03174 0.1785
0000b0 78 2d 89 ac 47 b0 ac 2f 86 30 ce 29 77 2f 3b 2a
       0.08545 -0.07086 -0.1337 0.1199 0.1414 0.04535 0.11664 0.04868
0000c0 df 30 17 a3 38 af 43 2b 57 2c 64 27 9a 20 e1 91
       0.1522 -0.01385 -0.1128 0.05673 0.0678 0.02887 0.00899 -0.0007176
0000d0 c8 23 b5 30 4f 23 ba b1 ea aa e7 2c 31 a4 f7 31
       0.0152 0.1471 0.014275 -0.179 -0.05402 0.0766 -0.01637 0.1864
0000e0 48 30 9e a1 be 20 30 2d cc 9b 03 af 5d 2e ca af
       0.1338 -0.01097 0.00926 0.08105 -0.003807 -0.10956 0.0994 -0.1217
0000f0 35 a5 de ad 96 ac 4d ac d3 ad a8 9f 78 30 5d 26
       -0.02034 -0.0917 -0.07166 -0.0672 -0.091 -0.007477 0.1396 0.02486
000100 03 ad 6e 2b 72 9e c1 25 51 2c 5e af a5 2b f0 b0
       -0.0783 0.05804 -0.006294 0.02248 0.06744 -0.1151 0.05972 -0.1543
000110 b7 af 5f 22 32 b0 77 2c 82 a5 3d 31 51 b0 27 af
       -0.12054 0.01244 -0.1311 0.06976 -0.02151 0.1637 -0.1349 -0.11176
000120 24 ad 34 af bc a9 0e 30 cf ae 4c ac e2 28 d3 1f
       -0.0803 -0.11255 -0.0448 0.1267 -0.1064 -0.06714 0.03815 0.00764
000130 e0 ae c5 2d 31 2f f9 25 43 30 71 ac 6f 30 f8 2b
       -0.1074 0.09015 0.11237 0.02333 0.1332 -0.0694 0.1385 0.06226
000140 a7 30 db ad 58 aa 27 b3 7c 25 96 2d ad a8 e7 28
       0.1454 -0.0915 -0.04956 -0.2235 0.02142 0.0873 -0.03653 0.0383
000150 66 2c b2 ae 5b 29 7d b0 b2 1e 56 b0 61 2c 99 2e
       0.0687 -0.1046 0.04184 -0.1403 0.00654 -0.1355 0.0684 0.1031
000160 5b 28 f1 23 82 ae 79 30 18 ac 4c b0 2d 29 1d 31
       0.03403 0.01551 -0.1017 0.1398 -0.06396 -0.1343 0.04044 0.1598
000170 3f 2f 1d ac 9b aa de 2b 2a 2d 44 b1 3b 31 09 a0
       0.1132 -0.0643 -0.0516 0.06146 0.0807 -0.1646 0.1635 -0.00788
000180 fd 29 1c b0 8e 2a bc ac 41 a7 32 af ab 32 b4 ae
       0.04678 -0.1284 0.0512 -0.074 -0.02834 -0.1124 0.2084 -0.10474
000190 f1 af d9 aa 4d b2 4c ae bb 2c 23 30 71 2c e1 28
       -0.1241 -0.0535 -0.1969 -0.0984 0.0739 0.1293 0.0694 0.03812
0001a0 f7 b1 b2 27 c4 2c 26 ad c4 24 ee 23 b6 31 1f 31
       -0.1864 0.03006 0.07446 -0.08044 0.01862 0.01549 0.1785 0.16
0001b0 4f a2 17 ac 77 ae ba 2f 91 29 d1 2f ef b2 2a 30
       -0.01232 -0.0639 -0.101 0.1207 0.0435 0.12213 -0.2167 0.1301
0001c0 95 b2 f3 2e 98 31 1a 22 42 2c 70 24 d0 ac a3 a5
       -0.2057 0.1086 0.1748 0.01192 0.0665 0.01733 -0.0752 -0.02202
0001d0 1a 32 05 30 14 a6 d2 2f 3d a9 18 24 f2 ad 3b 31
       0.1907 0.1256 -0.02374 0.1222 -0.04092 0.01599 -0.0929 0.1635
0001e0 55 ae fc 18 2b 29 54 ae c4 8a 79 2e 5c ac 73 a5
       -0.09894 0.002434 0.04037 -0.0989 -0.0002065 0.10114 -0.0681 -0.02129
0001f0 3d a7 3a 2d f7 21 bc 31 77 b0 dd b0 36 ae 16 30
       -0.02827 0.08167 0.01165 0.1792 -0.1395 -0.152 -0.09705 0.1277

arith.constant3 f2 [192, 24]
000000 5b a4 96 a4 f1 9d 21 2a ec 2f 29 2f c4 ad bb b1
       -0.01701 -0.01791 -0.005802 0.04788 0.1238 0.1119 -0.0901 -0.1791
000010 15 2e c5 a8 f6 2e 23 b0 35 28 88 30 07 ad 34 2d
       0.09503 -0.03726 0.10876 -0.1293 0.03287 0.1416 -0.07855 0.0813
000020 97 a9 79 25 e7 aa 3d b1 a6 a6 f7 aa d4 b0 a5 24
       -0.04367 0.02138 -0.05392 -0.1637 -0.02597 -0.0544 -0.1509 0.01814
000030 84 af ef 25 23 ac d2 2f 23 29 22 2c de a6 30 2e
       -0.11743 0.02318 -0.06464 0.1222 0.04013 0.0646 -0.02682 0.0967
000040 87 1c 7d 27 5a ab f7 31 76 1e 83 b1 ff a6 6b ae
       0.00442 0.02925 -0.05743 0.1864 0.00631 -0.1722 -0.02733 -0.1003
000050 72 30 3c b0 32 a5 7e 31 48 32 bc 2a 45 28 60 b0
       0.1389 -0.1323 -0.0203 0.1716 0.1963 0.0526 0.03336 -0.1367
000060 3d 2f 7e ae b9 9e f4 2c b0 b0 0e b1 3d 30 9a 2a
       0.1131 -0.10144 -0.006565 0.0774 -0.1465 -0.158 0.1324 0.05157
000070 c0 ab 00 31 c6 a8 b8 ab d5 30 72 af e3 ac 3e a9
       -0.06055 0.1562 -0.0373 -0.0603 0.151 -0.11633 -0.07635 -0.04095
000080 0c 2c 39 9b e0 30 f5 a9 be 24 f0 af 8f ad cb 2f
       0.06323 -0.003527 0.1523 -0.04654 0.01852 -0.124 -0.08685 0.12177
000090 67 a7 06 2c a1 2d ed ae 76 2c a3 a2 3f 32 c2 28
       -0.02892 0.06287 0.08795 -0.1082 0.0697 -0.01296 0.1952 0.03717
0000a0 eb ad cd af 55 a9 76 2f b2 27 d2 2f 63 2f f3 a7
       -0.09247 -0.1219 -0.04166 0.1166 0.03006 0.1222 0.1154 -0.03105
0000b0 11 a6 c1 30 9a 2f 14 2b a9 aa 28 2c 7d ae 4c 2d
       -0.0237 0.1486 0.1188 0.0553 -0.05203 0.06494 -0.1014 0.08276
0000c0 d8 9c b0 ae 79 a7 f6 a6 1e b0 c9 ac 46 ac 0c a8
       -0.00473 -0.1045 -0.02919 -0.02719 -0.1287 -0.07477 -0.0668 -0.03162
0000d0 41 b1 0c a9 23 af 4a 2f 59 b0 17 a9 3a a9 e4 2c
       -0.1642 -0.03943 -0.1115 0.1139 -0.1359 -0.03976 -0.04083 0.0764
0000e0 c2 2a 35 af 6e 92 94 2e df ae 5f 28 7d 30 e2 b1
       0.0528 -0.1126 -0.000785 0.1028 -0.10736 0.03415 0.1403 -0.1838
0000f0 44 2c 85 30 8f 26 16 af a8 ac 76 30 94 2c 55 30
       0.06665 0.1412 0.02562 -0.1107 -0.07275 0.1394 0.07153 0.1354
000100 4c 2d 22 2d 2d 28 ab 2f 0b a8 da 31 24 a8 3a 2d
       0.08276 0.0802 0.03262 0.1198 -0.0316 0.1829 -0.03235 0.08167
000110 67 2c 26 ad 37 83 a8 ae 29 2c 95 2c 32 a4 d8 ac
       0.0688 -0.08044 -4.905e-05 -0.104 0.065 0.0716 -0.01639 -0.0757
000120 34 27 f9 30 57 aa 7d a2 c8 99 87 a0 dd 26 4f ae
       0.02814 0.1554 -0.04953 -0.01267 -0.002823 -0.00884 0.02681 -0.0986
000130 92 b2 94 20 43 2a 10 2d cf 29 1e 30 19 af 7c a1
       -0.2053 0.00894 0.04892 0.0791 0.04538 0.1287 -0.1109 -0.01071
000140 5b 2f 2a b1 db a8 80 ad a6 2a 4e b0 b9 ac 10 2b
       0.1149 -0.1614 -0.03793 -0.08594 0.05194 -0.1345 -0.0738 0.05518
000150 3e b1 de 32 6f a0 fb 31 79 31 9a a0 22 a5 07 2c
       -0.1638 0.2146 -0.00866 0.1869 0.171 -0.00899 -0.02005 0.0629
000160 a7 ac 7d 2e 74 2e 2b 2d e5 a9 74 32 ed 2f 0a 31
       -0.0727 0.1014 0.1008 0.08075 -0.04605 0.2017 0.12384 0.1575
000170 c3 a6 8f 2d 23 30 42 30 f1 a8 f1 2b b1 2f 65 b0
       -0.02641 0.08685 0.1293 0.133 -0.0386 0.06204 0.1202 -0.1373
000180 65 2d 5a b1 69 2f 63 ae 52 31 1d af 6a af 93 aa
       0.0843 -0.1672 0.1158 -0.0998 0.1663 -0.11115 -0.11584 -0.05136
000190 77 ac fa a7 f4 aa 0c 29 37 30 8e 2b 11 a9 6e 2b
       -0.06976 -0.03116 -0.05432 0.03943 0.1317 0.05902 -0.03958 0.05804
0001a0 67 30 fb b0 59 a6 3e ac a1 28 02 b0 07 2d b3 af
       0.1376 -0.1556 -0.0248 -0.0663 0.03616 -0.1252 0.07855 -0.1203
0001b0 0d ab 87 2f 9d ac cd 26 46 33 9d b0 7c 85 dd a1
       -0.05508 0.1176 -0.0721 0.02657 0.2273 -0.1442 -8.37e-05 -0.01145
0001c0 42 26 5b b0 21 aa c1 ac 74 af 1e 30 f1 ac 52 b1
       0.02444 -0.1361 -0.04788 -0.0743 -0.11646 0.1287 -0.0772 -0.1663
0001d0 43 b3 0a 2c 57 ab a1 ae 13 31 b7 28 89 27 fd 31
       -0.2269 0.0631 -0.05734 -0.1036 0.1586 0.03683 0.02943 0.1871
0001e0 9d 2e a3 af b7 a9 c7 2e 7b 28 d8 29 b6 af 17 ae
       0.10333 -0.1193 -0.04465 0.1059 0.035 0.04565 -0.1205 -0.09515
0001f0 3e ae fc b1 38 2a da 2b be 21 8f 28 c1 31 12 2f
       -0.09753 -0.187 0.04858 0.06134 0.011215 0.0356 0.1798 0.1105

arith.constant4 f2 [24, 192]
000000 01 a8 ae 2d c1 a0 f7 2f 0b ac 7b a0 e6 32 d2 2c
       -0.03128 0.08875 -0.009285 0.12445 -0.0632 -0.00875 0.2156 0.0753
000010 9d 31 cd 28 33 2d d1 b1 3a ad 04 ab 6f 28 c4 aa
       0.1754 0.0375 0.08124 -0.1818 -0.08167 -0.0548 0.03464 -0.05286
000020 3b a5 4e af cf 32 6e 30 87 ac e5 2d 37 2d a0 30
       -0.02043 -0.11414 0.2128 0.1384 -0.07074 0.0921 0.0815 0.1445
000030 98 ac 31 a8 39 28 9d 2e 40 30 4d ac e9 af 5c a3
       -0.0718 -0.03275 0.033 0.10333 0.1328 -0.0672 -0.1236 -0.01437
000040 55 ad 1b 27 e2 24 77 31 84 31 66 ab 6f 2c 7e a2
       -0.0833 0.02776 0.01907 0.1708 0.1724 -0.0578 0.0693 -0.01268
000050 9e 2b f8 2b 80 b2 bc 2e e3 29 0d b0 19 30 20 a9
       0.0595 0.06226 -0.2031 0.1052 0.046 -0.1266 0.128 -0.04004
000060 57 a4 39 af 6d aa c7 aa 07 30 0d b2 53 aa 30 2d
       -0.01695 -0.11285 -0.0502 -0.05295 0.1259 -0.1891 -0.0494 0.08105
000070 cb 30 02 b0 03 2c ed 31 0b 32 46 31 31 b2 87 31
       0.1498 -0.1252 0.0627 0.1852 0.1888 0.1648 -0.1935 0.1727
000080 1c b0 17 1c 80 b0 d6 ad f6 a8 63 33 e5 ab 70 b0
       -0.1284 0.003994 -0.1406 -0.0912 -0.03876 0.2308 -0.06168 -0.1387
000090 b5 a5 53 32 06 26 e7 94 18 a6 34 2c 59 32 24 b1
       -0.0223 0.1976 0.02353 -0.001197 -0.0238 0.0657 0.1984 -0.1606
0000a0 b3 a4 39 25 ef 29 a8 2e 4b 33 03 2c 91 ad e6 25
       -0.01836 0.0204 0.04636 0.104 0.2279 0.0627 -0.087 0.02304
0000b0 8c ac 92 29 71 2c 1a 2e 49 32 28 af 74 2b a4 ad
       -0.07104 0.04352 0.0694 0.09534 0.1964 -0.1118 0.05823 -0.08813
0000c0 1e 2e 73 ad b4 b0 e2 ae 2d ab 24 2d 49 1d 3d 32
       0.0956 -0.08514 -0.147 -0.10754 -0.05606 0.0803 0.00516 0.195
0000d0 82 29 0e 2e 01 ae 70 2c ef 30 db 2b 91 31 c6 2f
       0.04303 0.0946 -0.0938 0.06934 0.1542 0.06137 0.174 0.12146
0000e0 f3 2f 87 2e 56 1f 20 2d f2 2f 26 2a 15 2c d9 2e
       0.1242 0.102 0.007164 0.0801 0.12415 0.04803 0.0638 0.107
0000f0 51 ad 1c 2b b9 a7 b4 ab 10 31 54 30 fe ac bc a3
       -0.08307 0.05554 -0.03017 -0.06018 0.1582 0.1353 -0.078 -0.01511
000100 ea 25 96 2d 75 2b a1 af 47 32 66 25 b9 2b 6d ac
       0.0231 0.0873 0.05826 -0.1192 0.1962 0.02109 0.06033 -0.06915
000110 f9 27 3d 28 ef ae 6e 2e a5 2d ba 23 50 26 35 b2
       0.03114 0.0331 -0.10834 0.10046 0.0882 0.01509 0.02466 -0.194
000120 10 b0 08 30 c2 ad 55 ad 13 aa 86 b0 c3 1e 96 2d
       -0.127 0.126 -0.08997 -0.0833 -0.04745 -0.1414 0.006603 0.0873
000130 dc b0 04 ac 5b ac d5 33 38 a4 54 ae ea b0 30 af
       -0.1519 -0.06274 -0.06805 0.2448 -0.01648 -0.0989 -0.1536 -0.1123
000140 14 25 46 25 ed 28 94 30 5e 31 cd 2d 4e ae 74 b0
       0.01984 0.0206 0.03848 0.1431 0.1677 0.09064 -0.0985 -0.1392
000150 48 19 77 b0 07 a5 4e ac 01 31 27 2f 80 af 8c 2d
       0.002579 -0.1395 -0.01964 -0.06726 0.1564 0.11176 -0.1172 0.0867
000160 1b a3 ca 2d 5b b1 45 29 69 2d 75 33 13 28 1a a6
       -0.01388 0.09045 -0.1674 0.04117 0.08453 0.233 0.03183 -0.02383
000170 d4 2c 3f 2d 0a 25 2c ad 98 1e 27 2d 93 ae b8 31
       0.07544 0.082 0.01968 -0.0808 0.00644 0.0805 -0.1027 0.1787
000180 bb af b6 2d e9 2a e1 b0 d5 30 0c 30 4e ae 28 b3
       -0.1208 0.08923 0.054 -0.1525 0.151 0.1265 -0.0985 -0.2236
000190 76 b0 a4 30 02 22 e2 2d be 31 1f 25 cc 2d c6 a4
       -0.1394 0.145 0.011734 0.0919 0.1794 0.02 0.0906 -0.01865
0001a0 d9 2f 4d 2a cf 99 a1 ab 7c 2c 08 ae 82 ad 38 28
       0.1226 0.04922 -0.002836 -0.0596 0.07007 -0.09424 -0.08606 0.03296
0001b0 d0 b0 af 2a 6d 9c 76 b2 15 2e 49 b2 27 30 02 ab
       -0.1504 0.05222 -0.004322 -0.2019 0.09503 -0.1964 0.1298 -0.05475
0001c0 2a a8 28 ae 18 2e 5f 2c a3 30 ac ac e1 ac 06 31
       -0.03253 -0.0962 0.0952 0.0683 0.1449 -0.073 -0.07623 0.157
0001d0 ef a1 f3 a9 38 a7 79 b2 0c 2b 2a 29 fb a7 7d 1e
       -0.01159 -0.04648 -0.0282 -0.2023 0.05505 0.04034 -0.03117 0.006336
0001e0 5f aa 73 b3 4d 32 56 30 30 ae 70 30 b7 31 51 aa
       -0.04977 -0.2328 0.1969 0.1355 -0.0967 0.1387 0.1786 -0.04935
0001f0 04 a7 8d 27 04 30 a2 ac 4a a6 d0 30 a7 2b 0a 32
       -0.0274 0.0295 0.1255 -0.0724 -0.02457 0.1504 0.05978 0.1887

arith.constant5 f2 [128, 16]
000000 21 2a 24 29 0f 25 86 b4 4e a6 56 ad bb 21 16 af
       0.04788 0.04016 0.01976 -0.2827 -0.02463 -0.0834 0.01119 -0.1107
000010 e3 30 35 b4 14 ad 26 b2 57 1f 61 b2 25 2e f0 21
       0.1527 -0.263 -0.07935 -0.1921 0.007168 -0.1993 0.096 0.0116
000020 dd 9d 41 2b 73 2d 7d 2b 60 29 52 ac 63 2d 74 b2
       -0.005726 0.05667 0.08514 0.0585 0.042 -0.0675 0.08417 -0.2017
000030 27 b0 1a ab 3d b2 ea b0 23 2f d1 a5 40 aa f2 b0
       -0.1298 -0.05548 -0.195 -0.1536 0.1115 -0.02272 -0.04883 -0.1545
000040 46 ad f1 28 4c b0 e9 b2 de ab fb 22 63 2f fc 2e
       -0.0824 0.0386 -0.1343 -0.216 -0.06146 0.01363 0.1154 0.10913
000050 73 31 f3 b0 0e ac 16 ad d7 ac ec 20 c0 b0 bc 30
       0.1703 -0.1547 -0.06335 -0.07947 -0.0756 0.00961 -0.1484 0.148
000060 f1 b1 f0 27 d6 33 dd b2 1e b4 40 2c eb b2 0a b0
       -0.1857 0.031 0.2449 -0.2145 -0.2573 0.0664 -0.2162 -0.1262
000070 34 33 e5 31 6e ac 4d a5 bf 31 5f 2c 4e ac c8 30
       0.2251 0.1842 -0.0692 -0.0207 0.1796 0.0683 -0.06726 0.1494
000080 90 28 c7 28 95 b1 54 b4 4e 2e 07 a7 95 30 79 32
       0.03564 0.03732 -0.1744 -0.2705 0.0985 -0.02745 0.1432 0.2023
000090 1b 28 21 a1 d7 2c 1a b4 7a 2d fb b2 3c 90 7a ad
       0.03207 -0.01002 0.0756 -0.2563 0.0856 -0.2181 -0.000517 -0.0856
0000a0 f4 ac fd 2a 29 ab e2 aa c1 26 42 26 8a b1 f6 a8
       -0.0774 0.0546 -0.05594 -0.05377 0.02638 0.02444 -0.1731 -0.03876
0000b0 13 ac 87 af 69 b0 ec 2f 76 27 73 27 8f ab c4 ae
       -0.06366 -0.1176 -0.1378 0.1238 0.02914 0.0291 -0.05905 -0.1057
0000c0 92 b1 a5 2d 31 35 f6 ae b4 b1 be 30 e2 31 83 a8
       -0.1741 0.0882 0.3245 -0.10876 -0.1782 0.1482 0.1838 -0.03525
0000d0 05 30 7b 2b 77 a9 7a 2d 54 a6 9d 24 3a a9 7e 33
       0.1256 0.05844 -0.0427 0.0856 -0.02472 0.01802 -0.04083 0.2341
0000e0 f8 a2 37 2e c7 a6 a3 ad 5a ac f6 30 9a ac 28 aa
       -0.01361 0.0971 -0.02647 -0.0881 -0.068 0.155 -0.0719 -0.0481
0000f0 01 2e 2d ad 38 b0 9d 32 ee b0 cf 2f 90 2e 2b b2
       0.0938 -0.0809 -0.1318 0.2067 -0.154 0.122 0.10254 -0.1927
000100 7a 2c 83 31 28 ad f2 1f 44 b0 75 93 04 32 30 ac
       0.06995 0.1722 -0.08057 0.00776 -0.1333 -0.0009103 0.188 -0.0654
000110 b3 2d 21 b2 c6 2c 7b 25 4d a8 44 33 59 2d 1f b4
       0.08905 -0.1915 0.0746 0.02141 -0.0336 0.227 0.08356 -0.2576
000120 01 b0 5a 2f db ad 64 2d 3f 32 46 af 97 2a d8 30
       -0.1251 0.11487 -0.0915 0.0842 0.1952 -0.11365 0.05148 0.1514
000130 0f a7 d9 2a 29 b2 77 2b 54 2c 22 b1 5b b3 aa 2d
       -0.02757 0.0535 -0.1925 0.05832 0.0676 -0.1604 -0.2299 0.0885
000140 95 b2 41 ac 61 22 8a a3 41 30 a1 2f 7f b0 4b 30
       -0.2057 -0.06647 0.01246 -0.014725 0.1329 0.1192 -0.1405 0.1342
000150 78 2f bb aa d5 2f 20 2c 6b ac 02 30 ee af e3 b0
       0.1167 -0.05258 0.1224 0.06445 -0.06903 0.1252 -0.1239 -0.1527
000160 d6 b2 2c b4 11 30 38 28 c2 9d 25 35 e9 31 ea b3
       -0.2136 -0.2607 0.1271 0.03296 -0.005623 0.3215 0.1847 -0.2473
000170 47 aa 41 9a 59 30 c1 b0 0f 2d 0b b1 3d a7 43 25
       -0.04904 -0.003054 0.1359 -0.1486 0.07904 -0.1576 -0.02827 0.02055
000180 26 b4 e1 30 49 2e 6b aa e8 a1 a7 b1 e3 31 76 2e
       -0.2593 0.1525 0.0982 -0.05014 -0.011536 -0.1766 0.184 0.10095
000190 19 28 9c 2c 40 ad 3b 30 c3 32 de 28 27 b0 c0 a2
       0.032 0.072 -0.08203 0.1322 0.2113 0.03802 -0.1298 -0.01318
0001a0 ff 2c 1f a9 e5 16 d5 29 83 32 b0 aa 72 2b 3a 2b
       0.07806 -0.04 0.001683 0.04556 0.2035 -0.05225 0.05817 0.05646
0001b0 ab 2d 74 ad 77 30 c5 33 7a ae 9f ab 2a ab f3 24
       0.08856 -0.0852 0.1395 0.2428 -0.1012 -0.05954 -0.05597 0.01933
0001c0 bd ad 12 2c 31 ae 0d b2 e6 29 a3 a8 57 35 b3 a9
       -0.08966 0.0636 -0.09674 -0.1891 0.04608 -0.03622 0.3337 -0.04453
0001d0 07 b2 71 2f 83 ae 7e a8 be b2 fc 31 ed b3 49 a4
       -0.1884 0.1163 -0.10175 -0.0351 -0.2107 0.187 -0.2477 -0.01674
0001e0 42 30 bf b0 52 b2 1e af af a1 40 ad 64 a2 12 b4
       0.133 -0.1483 -0.1975 -0.1112 -0.0111 -0.08203 -0.01248 -0.2544
0001f0 e6 ad 15 28 26 30 4d 2d cb 31 64 29 0e a9 7e 2b
       -0.09216 0.0319 0.1296 0.0828 0.181 0.0421 -0.0395 0.05853

arith.constant6 f2 [16, 128]
000000 92 31 85 ac 86 2e 6b a3 61 2a 29 ac 19 31 ae 23
       0.1741 -0.0706 0.1019 -0.01449 0.04984 -0.065 0.1593 0.015
000010 2d b1 0a ae 0d 2d 42 31 fd a1 d8 25 a5 2b 05 b2
       -0.1617 -0.09436 0.0789 0.1643 -0.011696 0.02283 0.05972 -0.1881
000020 2f 33 dd b1 cf 31 43 2d 52 30 fd 2a 08 ac c2 21
       0.2245 -0.1832 0.1815 0.0822 0.135 0.0546 -0.063 0.011246
000030 f8 2b c1 33 35 28 d4 b1 9b 32 17 33 13 ad 00 b0
       0.06226 0.2423 0.03287 -0.1821 0.2064 0.2216 -0.0793 -0.125
000040 4f 23 cf b0 96 2e 4a ab 4a 2e 58 30 2f aa 04 af
       0.014275 -0.1503 0.1029 -0.05695 0.09827 0.1357 -0.0483 -0.1096
000050 0a 31 92 28 c4 ae 48 ae 7b ad e9 2f 9b 30 1f b2
       0.1575 0.0357 -0.1057 -0.09814 -0.08563 0.1236 0.1439 -0.1913
000060 6d 2c 86 b1 89 2e c9 ae 09 a2 d8 2c 78 a8 8a b1
       0.06915 -0.1726 0.1021 -0.106 -0.01179 0.0757 -0.0349 -0.1731
000070 87 32 12 24 2a 2a 29 30 12 30 f2 b1 1b 8a 7f af
       0.204 0.0159 0.04816 0.13 0.1272 -0.1858 -0.0001863 -0.1171
000080 0e 31 7b ae 38 2f ec ad ab 27 d5 23 08 8e 87 30
       0.158 -0.10126 0.1128 -0.0925 0.02995 0.0153 -0.000368 0.1415
000090 a7 ab b9 33 8d ac 48 29 66 2c 25 a5 8f 8a b4 31
       -0.05978 0.2413 -0.0711 0.04126 0.0687 -0.0201 -0.0002002 0.1782
0000a0 bf 2c 5b af 2d 24 d1 2c 4a 2c 7d b2 9c b0 71 33
       0.07416 -0.1149 0.01631 0.07526 0.067 -0.2028 -0.144 0.2325
0000b0 db aa a5 2c 99 33 26 ac 8e a8 1a ae dd b1 2d 29
       -0.05356 0.0726 0.2374 -0.0648 -0.03558 -0.09534 -0.1832 0.04044
0000c0 ae ad 34 ac 55 ae 0e ae 86 2c ce ab cc b2 2d ad
       -0.08875 -0.0657 -0.09894 -0.0946 0.0707 -0.06097 -0.2124 -0.0809
0000d0 c5 32 2d ab d6 ac a4 30 91 b0 5c ad 0e b1 95 32
       0.2115 -0.05606 -0.07556 0.145 -0.1427 -0.08374 -0.158 0.2057
0000e0 69 ae cb a1 71 31 4d 31 b2 32 66 b1 32 32 53 b0
       -0.10016 -0.011314 0.17 0.1656 0.2092 -0.1687 0.1936 -0.1351
0000f0 f9 2e 28 1b a8 31 2b 2d c6 2e f2 ab ae a9 31 2d
       0.10895 0.003494 0.1768 0.08075 0.10583 -0.06207 -0.04437 0.0811
000100 69 30 94 a4 9d ac 86 1f d4 2c 5e 33 8a b2 e2 1c
       0.1378 -0.01788 -0.0721 0.007347 0.07544 0.2302 -0.2043 0.00477
000110 52 a0 9e 2a b7 32 bc 2d 11 a9 54 2d 0a 98 a4 b1
       -0.00844 0.0517 0.2098 0.0896 -0.03958 0.08325 -0.001972 -0.1763
000120 39 33 ce 32 3f b2 9c 2e 61 af 84 ae 11 2c 27 ad
       0.2257 0.2126 -0.1952 0.1033 -0.1153 -0.1018 0.06354 -0.0805
000130 de a8 cd 2f 72 31 88 af 2f 2f 63 31 1f b2 36 b0
       -0.03802 0.1219 0.1702 -0.1177 0.11224 0.1683 -0.1913 -0.1316
000140 5f b0 58 31 89 32 2d 2e 40 ae e5 2e 82 2d b5 34
       -0.1366 0.167 0.2042 0.0965 -0.09766 0.1077 0.08606 0.2942
000150 bc ae e0 a4 4f 31 c8 ac 72 33 e5 30 d3 2f c6 ac
       -0.1052 -0.01904 0.1659 -0.0747 0.2327 0.153 0.12225 -0.0746
000160 2b 32 2e 34 4f 2d ae 2b d7 31 24 ad 6c 2b 03 ab
       0.1927 0.2612 0.08295 0.06 0.1825 -0.0803 0.05798 -0.05478
000170 4d b2 5a b2 b3 32 0d 32 64 ad 1e b0 09 30 14 28
       -0.1969 -0.1985 0.2094 0.1891 -0.0842 -0.1287 0.1261 0.03186
000180 cd b1 0d ad 10 30 89 32 f0 a7 ab a6 1a 29 b3 b1
       -0.1813 -0.0789 0.127 0.2042 -0.031 -0.02605 0.03986 -0.1781
000190 be ab 00 29 f1 26 34 af 57 2e ea b1 7d 2a 12 25
       -0.0605 0.03906 0.02711 -0.11255 0.09906 -0.1848 0.0507 0.0198
0001a0 6a 2f 34 ac 3a 2d 03 b2 b5 2c be 32 47 b1 3c b1
       0.11584 -0.0657 0.08167 -0.1879 0.07355 0.2107 -0.1649 -0.1636
0001b0 7e 2e 8e 30 a2 20 fc af 1f 32 7a 33 1f 18 b3 26
       0.10144 0.1423 0.00905 -0.12476 0.1913 0.2336 0.002012 0.02617
0001c0 07 a7 34 31 79 33 68 2b 81 25 f3 b0 97 2c 58 2e
       -0.02745 0.1626 0.2335 0.05786 0.0215 -0.1547 0.0717 0.0991
0001d0 ec b1 42 2c 0c b0 be aa 85 a9 e3 b2 b8 14 79 b1
       -0.185 0.0665 -0.1265 -0.05267 -0.04312 -0.2152 0.001152 -0.171
0001e0 47 34 f9 ab aa 31 42 a9 15 ad 8e 32 04 31 d1 a5
       0.2673 -0.0623 0.177 -0.04108 -0.0794 0.2048 0.1567 -0.02272
0001f0 5d 2d 30 2c 1f aa cb af 15 9b fa 2c 3a 29 bd 2e
       0.0838 0.0654 -0.04782 -0.12177 -0.003458 0.07776 0.04083 0.1053

arith.constant7 f4 [15]
000000 a0 e2 eb bc 82 fe f5 bb 0c c8 18 bd 9e fd a3 bd
       -0.028794587 -0.0075071463 -0.037300155 -0.08007358
000010 c6 b4 0d bd 7f bc 04 bc 66 1e c2 bc 43 d1 22 bc
       -0.034596227 -0.008101582 -0.023696136 -0.009937587
000020 ce da 84 3c 1c 6d 79 bc 34 34 76 3c 82 02 d9 3b
       0.016217615 -0.015223768 0.015027095 0.0066226134
000030 1d 07 20 3c 90 0a 29 bd 1f 52 07 3c
       0.009767321 -0.04126984 0.008259325

agriscan_cnn_small_1/batch_normalization_1_2/batchnorm/mul f4 [64]
000000 1b 83 08 41 22 6f cb 40 46 31 50 41 0e ff 3f 41
       8.532008 6.357316 13.01203 11.999769
000010 07 7c 71 41 3e 29 05 41 f0 d8 d5 40 58 ba 40 41
       15.09278 8.322569 6.6827316 12.045494
000020 1b 24 e8 40 e8 87 05 41 86 51 17 41 93 f3 dd 40
       7.2544074 8.34568 9.457403 6.935983
000030 5f 36 25 41 ae be 0e 41 27 b9 1b 41 10 72 fb 40
       10.325774 8.921553 9.732703 7.8576736
000040 7b 4f e7 40 8c dc c4 40 f9 99 4c 41 d5 0e fb 40
       7.228452 6.151922 12.787591 7.8455606
000050 d9 9f 1f 41 4c a1 f8 40 15 bb dd 40 53 2e f2 40
       9.976525 7.7696896 6.929087 7.568155
000060 4b 70 3f 41 b6 3a 14 41 8d b2 01 41 37 e3 33 41
       11.964915 9.264334 8.1060915 11.242972
000070 33 63 24 41 15 bf c2 40 c2 02 4e 41 54 a1 fd 40
       10.274219 6.0858254 12.875673 7.9259434
000080 6c e5 e8 40 77 8a 12 41 e3 53 1f 41 b7 6e 3c 41
       7.2780056 9.158805 9.95798 11.77703
000090 74 6e 06 41 3c 37 31 41 12 af 19 41 1f 80 20 41
       8.401966 11.075985 9.605242 10.03128
0000a0 71 3e 50 41 20 1d bf 40 23 5a 0d 41 64 18 06 41
       13.0152445 5.9723053 8.834506 8.380955
0000b0 34 3c 02 41 cb 88 47 41 fb 0a e3 40 68 74 71 41
       8.139698 12.470897 7.0950904 15.0909195
0000c0 1e 76 36 41 d4 0c 02 41 06 f5 2a 41 c8 f1 30 41
       11.403837 8.128132 10.68482 11.059029
0000d0 44 5f 2d 41 08 12 27 41 a1 d1 28 41 95 87 50 41
       10.835758 10.441902 10.551179 13.033101
0000e0 d1 19 fd 40 f4 d2 11 41 9e f6 ee 40 7d ea 1e 41
       7.9094014 9.114002 7.4676046 9.932248
0000f0 cb 96 18 41 3c 09 08 41 42 41 28 41 7a 92 39 41
       9.536815 8.5022545 10.515932 11.598261

agriscan_cnn_small_1/batch_normalization_1_2/batchnorm/sub f4 [64]
000000 73 57 b1 be 87 53 fe be c2 1d b6 3e 3d 0c 36 bf
       -0.3463703 -0.496731 0.35569578 -0.71112424
000010 16 a9 a9 3e bc 43 88 3f b0 bb dc 3d 9c 26 23 3e
       0.33136815 1.0645671 0.10777986 0.15932697
000020 d1 68 00 bf 03 90 74 bf d0 8b 5d 3d 0a ca ca 3e
       -0.5015994 -0.95532244 0.054088414 0.3960727
000030 2b 78 0d 3d cc 48 19 3e 62 12 2e bf 24 09 d9 be
       0.03453843 0.14969176 -0.679968 -0.42389786
000040 79 b7 12 3f ad 7f 05 bf c0 ac 0f 3f e3 90 c7 3e
       0.5731121 -0.5214794 0.5612297 0.38977727
000050 6a 3b ff be ef 21 0e 3f 21 db e3 bd 9d 07 d8 3c
       -0.49850017 0.5552053 -0.1112578 0.026370818
000060 c2 01 a9 3f 36 4a b0 3f f7 d7 b4 3e cb 58 bb be
       1.3203661 1.3772647 0.35321018 -0.3659118
000070 69 1b 59 bf e2 35 03 3f bb e7 52 3f 10 b0 64 bf
       -0.8480745 0.51254094 0.8238484 -0.8933115
000080 ad 7a 83 3f 0e 30 a8 bf 56 94 2a 3f 7f e3 cc bf
       1.0271813 -1.3139665 0.6663259 -1.6006926
000090 1f 81 ac be e4 13 36 3d 23 24 2f 3f 5b 1d 84 3f
       -0.33692262 0.044452563 0.68414515 1.0321459
0000a0 aa 40 f9 bd 62 a8 bf be d4 3d 2c 3f 3a f4 84 3f
       -0.12170537 -0.37433153 0.6728184 1.0387032
0000b0 d0 f6 32 ba cf 94 d5 3e 59 f6 63 3e 6c f1 93 3f
       -0.0006826939 0.41715094 0.22261943 1.1558051
0000c0 24 06 12 3f 7e fd 5d 3f 52 cb 87 bf 03 47 4d 3f
       0.5704062 0.86714923 -1.0608923 0.8018648
0000d0 d9 51 d0 3e 03 1d 0e 3f 09 05 c4 3f ac f9 25 3d
       0.40687445 0.5551302 1.5314037 0.04052131
0000e0 75 fc d3 3e b9 84 0b be 68 6e bf 3e 72 a5 7b 3f
       0.41403547 -0.13624848 0.3738892 0.98299325
0000f0 3c 89 3c 3f fc d0 39 bf 6c aa c4 3e 4f 18 c7 3f
       0.73646903 -0.7258451 0.38411272 1.5554293

agriscan_cnn_small_1/batch_normalization_1/batchnorm/mul f4 [32]
000000 ef 8b 0e 41 2c d3 07 41 c1 72 94 41 21 f5 f2 40
       8.909163 8.489056 18.556032 7.592423
000010 f6 01 23 41 40 d5 61 41 1f 2f 5d 41 91 e0 7f 41
       10.187979 14.114563 13.824004 15.992326
000020 be 94 ad 41 1f 3a 57 41 bc 1d 9d 41 80 3f bf 41
       21.697628 13.45169 19.639519 23.906006
000030 fd 41 aa 41 a7 ef 82 41 d5 ff ad 41 8f 78 c6 41
       21.28222 16.367018 21.749918 24.808867
000040 99 f9 a7 41 0c b2 9b 41 b4 2d 85 41 29 fb a9 41
       20.996874 19.461937 16.647316 21.247637
000050 7c fe ad 41 84 25 a6 41 97 2b 94 41 81 e1 6d 41
       21.74926 20.768318 18.521284 14.867555
000060 4c cb a9 41 4b 7d ff 40 f6 bd 9e 41 92 4d 87 41
       21.224266 7.9840446 19.842754 16.912876
000070 e7 38 5c 41 d4 53 a2 41 90 9d ad 41 d6 6d 9b 41
       13.763892 20.290932 21.701935 19.42863

agriscan_cnn_small_1/batch_normalization_1/batchnorm/sub f4 [32]
000000 63 4e 0f c0 a1 c1 d5 3f 16 b3 97 be fb c5 f4 bf
       -2.2391593 1.6699716 -0.2962882 -1.9122919
000010 5f df 23 c0 f1 a1 e8 3e 0d 19 c4 bf b7 3c 26 3d
       -2.5605085 0.4543605 -1.5320145 0.040585246
000020 81 5c 12 3f fb f3 90 3f 1e 44 71 3f bd 8d a8 3e
       0.571724 1.1324457 0.94244564 0.32920638
000030 98 72 a1 bf e5 cd 98 3d 6a 62 cb bf 9c f7 4b 3f
       -1.2613096 0.07461146 -1.5889409 0.79674697
000040 ca 2d 4e bf 74 63 0e 40 9d 68 16 bf 45 44 d8 3e
       -0.8053862 2.2248201 -0.5875338 0.42239586
000050 4c 5f 04 3f 11 ff d2 be 34 6d 6d bf c5 20 7e 3f
       0.5170791 -0.41210225 -0.92744756 0.9926875
000060 40 57 c6 3f 0f 33 01 c0 77 0d 81 3f 88 e8 b0 3e
       1.5495377 -2.0187414 1.0082234 0.34552407
000070 2a ec 13 bf b7 75 24 bf 7e b5 b0 bf 54 75 82 be
       -0.5778223 -0.6424212 -1.3805387 -0.2548014

agriscan_cnn_small_1/batch_normalization_2_1/batchnorm/mul f4 [64]
000000 36 90 25 41 a2 0b e5 40 c3 fc 04 41 e8 29 32 41
       10.347708 7.15767 8.311709 11.135231
000010 28 18 23 41 0a af 14 41 4b e4 03 41 73 b5 0c 41
       10.1933975 9.292734 8.243236 8.794299
000020 d9 6e 13 41 e0 01 22 41 74 66 11 41 ca 6a c4 40
       9.214562 10.125458 9.087513 6.138036
000030 c7 05 04 41 f9 97 24 41 c3 0c 2f 41 e1 87 ea 40
       8.2514105 10.287103 10.940616 7.329087
000040 1c 84 02 41 b2 b8 0f 41 9a cb 09 41 4a 68 1c 41
       8.157253 8.982592 8.612207 9.775461
000050 c9 7b 10 41 d7 20 25 41 e6 8c 17 41 2d 1a 14 41
       9.030221 10.320518 9.471899 9.256391
000060 e0 53 0a 41 dc a5 1a 41 1a 95 38 41 45 1d f9 40
       8.645477 9.665493 11.536402 7.784823
000070 ef c5 2e 41 e0 50 32 41 8f 74 d7 40 15 2e 1a 41
       10.923324 11.144745 6.7329783 9.6362505
000080 8b b1 db 40 44 93 1c 41 69 20 f2 40 82 b6 1f 41
       6.8654227 9.7859535 7.5664563 9.982058
000090 54 12 01 41 77 2b da 40 7b 1d 35 41 9f ec 16 41
       8.066975 6.817806 11.319697 9.432769
0000a0 73 0a ed 40 f9 90 3f 41 74 de 0a 41 67 1e 1f 41
       7.4075255 11.972894 8.67931 9.944922
0000b0 cd 01 22 41 4b 5c 2a 41 46 e2 18 41 ee a8 15 41
       10.12544 10.647532 9.555243 9.353743
0000c0 d3 1d 1e 41 a0 97 23 41 b7 29 15 41 bd 43 09 41
       9.882281 10.224518 9.322684 8.579038
0000d0 b5 92 fd 40 b4 2f 1f 41 9c a1 2b 41 3d a7 d2 40
       7.9241586 9.949146 10.726955 6.582915
0000e0 b0 ee 30 41 fe 6d e8 40 2d ae 0c 41 82 1d 15 41
       11.058273 7.263427 8.792523 9.319704
0000f0 30 99 12 41 0d 44 1f 41 c4 60 0e 41 a8 0a d3 40
       9.162399 9.954114 8.898624 6.595051

agriscan_cnn_small_1/batch_normalization_2_1/batchnorm/sub f4 [64]
000000 3e 36 b6 3e 14 ee 2c 3d 2a 6b 68 bf 43 7b 86 be
       0.35588259 0.042219236 -0.9078852 -0.26265916
000010 43 3e f1 be 40 7a 15 bf 1c 7d c2 bd d9 72 ef 3d
       -0.47117814 -0.58389664 -0.09496519 0.11691827
000020 c0 03 fc 3d 6e d6 9c 3e af da 23 be 43 67 f1 3d
       0.12305403 0.30632347 -0.1600139 0.11787274
000030 da 17 0f 3f 9c 45 80 3e f2 f2 1f bf 55 b4 ae 3e
       0.5589577 0.25053108 -0.6248008 0.34121957
000040 af 82 92 bf 7a 3c 2c 3f 36 9a a9 be 48 38 b7 be
       -1.1446131 0.6727978 -0.33125466 -0.35785127
000050 68 e0 01 3f b7 b4 44 bf e4 8b 31 be fa ca 28 3e
       0.5073304 -0.7683825 -0.1733852 0.1648368
000060 ea d7 91 3e 09 62 24 3f ed 71 3b bf f4 fd 63 3f
       0.28485042 0.6421209 -0.7322071 0.89059377
000070 0e c3 58 3f 6a c2 a0 3f 66 88 ce 3e 73 f5 4c bf
       0.8467263 1.255933 0.4033844 -0.80062026
000080 d6 41 84 3f f0 f4 72 3f f7 f0 a7 be cd 24 b6 be
       1.0332592 0.94904995 -0.3280103 -0.35574952
000090 ab 8f ee be 0b 17 28 3e 6e 2d 7f 3f c4 2b 5a 3e
       -0.46593985 0.1641504 0.99678695 0.21305758
0000a0 14 5a 6c 3f 98 64 cb bc 6a 2f 5f 3f f3 e3 69 3e
       0.9232495 -0.02482824 0.87181723 0.22840862
0000b0 d4 48 f3 be 9c 28 60 3e 39 36 39 be 47 33 28 3e
       -0.475165 0.21890491 -0.1808709 0.16425811
0000c0 d7 61 b4 3e 94 8e bc bd db c8 02 3f 48 01 a7 3e
       0.35230896 -0.09206882 0.5108773 0.32618165
0000d0 96 14 d5 bc ec 76 fa bc ae 9c 14 bf c5 ee b7 3e
       -0.026010793 -0.030574284 -0.58051574 0.35924354
0000e0 c0 9e b3 3e 09 ab 83 3e 68 3d 10 be 4a e1 23 bf
       0.35082054 0.25716427 -0.14085925 -0.6401564
0000f0 a0 ec 7c bd f8 95 99 bd da 67 37 bd 4d 76 37 bf
       -0.0617491 -0.074993074 -0.044776775 -0.7166489

agriscan_cnn_small_1/batch_normalization_3_1/batchnorm/mul f4 [128]
000000 6a 42 0b 41 ce b5 0c 41 be db 0b 41 f8 c8 0e 41
       8.703714 8.794386 8.741148 8.924065
000010 0f 54 a7 40 b0 ad de 40 67 6a 11 41 8a e5 c9 40
       5.229011 6.958702 9.088477 6.30927
000020 0e 8d 11 41 f8 56 00 41 49 52 11 41 d4 cf 13 41
       9.096937 8.021233 9.082589 9.238239
000030 be e4 12 41 c7 24 0f 41 bc 61 f2 40 33 26 df 40
       9.180845 8.946479 7.5744305 6.973413
000040 78 fc 01 41 bf 3c 23 41 88 68 cb 40 7d 79 ff 40
       8.124138 10.202331 6.35651 7.98358
000050 9b 9e bd 40 a9 fd f7 40 67 89 18 41 a7 65 db 40
       5.925611 7.7497144 9.5335455 6.8561587
000060 e0 71 13 41 a7 64 1b 41 db 03 f8 40 d9 1e 17 41
       9.2153015 9.712073 7.7504706 9.445031
000070 6a a5 0e 41 f0 e5 10 41 bf af 24 41 67 78 1e 41
       8.915384 9.056137 10.292907 9.904395
000080 a2 9a 13 41 62 e1 05 41 99 cc 24 41 45 d4 08 41
       9.225252 8.367525 10.299951 8.551824
000090 6f fb d6 40 c7 15 da 40 15 93 ea 40 65 8e 25 41
       6.7181926 6.8151584 7.3304543 10.347264
0000a0 89 1f 06 41 1a 52 f0 40 8d bf 1d 41 32 0b 08 41
       8.382699 7.510022 9.859265 8.502733
0000b0 a9 77 0d 41 b9 64 12 41 3b 11 1f 41 24 20 f0 40
       8.841714 9.1495905 9.941707 7.5039234
0000c0 cf 3f dd 40 09 a7 16 41 60 eb 00 41 0a 0a 2a 41
       6.914039 9.41578 8.057465 10.627451
0000d0 7b 3c c2 40 95 a3 1c 41 9d 98 05 41 19 67 21 41
       6.069883 9.789937 8.349759 10.08767
0000e0 1b 6b bf 40 dc 60 e3 40 92 76 09 41 3d cc ee 40
       5.9818244 7.1055737 8.591448 7.4624314
0000f0 da 0b 1a 41 f9 82 e8 40 10 5c 2e 41 f1 35 05 41
       9.627893 7.265988 10.897476 8.325669
000100 65 4d 0f 41 01 21 22 41 b6 33 8e 40 62 68 0d 41
       8.956395 10.133058 4.4438124 8.837984
000110 20 77 27 41 b8 83 0c 41 84 a4 f5 40 4c 9d da 40
       10.466583 8.782158 7.6763325 6.8317013
000120 fc 4a 35 41 17 43 0d 41 bd cb 0c 41 41 b0 07 41
       11.330807 8.828879 8.799741 8.480531
000130 48 a3 0e 41 2b c8 1b 41 c3 78 e6 40 cb 6b 20 41
       8.914864 9.736369 7.2022414 10.026317
000140 16 c3 0a 41 d6 d4 1d 41 40 a2 03 41 a1 28 e5 40
       8.672628 9.864462 8.227112 7.1612096
000150 27 7f d0 40 ed 84 09 41 fe e5 09 41 a9 fb fa 40
       6.5155215 8.594953 8.61865 7.84322
000160 66 a8 ca 40 ef b8 f9 40 23 07 12 41 e4 43 d9 40
       6.3330564 7.803825 9.126742 6.7895374
000170 6f b2 10 41 72 cd 0a 41 42 53 ff 40 d7 29 45 41
       9.043563 8.675158 7.9789133 12.322715
000180 88 00 ea 40 06 f4 1a 41 cc 16 0b 41 89 0d 06 41
       7.312565 9.684576 8.693066 8.3783045
000190 9c f7 18 41 e2 ce 99 40 6e ff 30 41 13 9a ef 40
       9.5604515 4.8065042 11.062361 7.487558
0001a0 a2 49 88 40 ed 7d 06 41 df 4f ea 40 ad 69 14 41
       4.2589884 8.405744 7.32225 9.2758
0001b0 70 c5 f5 40 66 63 04 41 d7 03 11 41 50 fd ec 40
       7.6803513 8.274267 9.063437 7.405922
0001c0 f2 f2 eb 40 56 e3 1c 41 96 df 11 41 6b 93 c5 40
       7.3734064 9.805502 9.117086 6.1742454
0001d0 ad de f3 40 87 9a ef 40 20 70 e7 40 22 9a e7 40
       7.620932 7.487613 7.232437 7.237565
0001e0 de aa 30 41 c6 83 31 41 78 4a fb 40 f1 45 e3 40
       11.041716 11.094671 7.8528404 7.102288
0001f0 ba f4 bd 40 25 60 cb 40 bb ad 04 41 05 dc 1e 41
       5.936124 6.3554864 8.292415 9.928716

agriscan_cnn_small_1/batch_normalization_3_1/batchnorm/sub f4 [128]
000000 5d 9a 6a 3f 14 66 87 bf a4 2a 74 3f 54 72 67 bf
       0.9164179 -1.0578027 0.95377564 -0.90408826
000010 30 0f c4 3e d7 3f 20 bf 13 53 c6 3f be bb 7e 3e
       0.38292837 -0.6259741 1.5494102 0.24876305
000020 a0 46 f4 bd ad e1 46 3e d3 21 95 bf cf 26 87 3f
       -0.11927533 0.19422026 -1.1650947 1.0558718
000030 68 38 b1 be 80 4c 74 bd 86 41 ac bc e3 0d 61 3d
       -0.34613347 -0.05964327 -0.021027338 0.054944884
000040 eb 11 cd be c3 fe fe 3c c0 1b ec 3e bf ad 92 be
       -0.40052733 0.03112734 0.46114922 -0.28648183
000050 94 d1 32 3f 98 bf 87 3e e2 04 db 3e ab e3 bc be
       0.6985104 0.26513362 0.42777163 -0.36892447
000060 43 fa 1e be bc d0 72 bf 1a d6 2d 3d 1d 08 a5 be
       -0.15525155 -0.94849753 0.04244051 -0.32232752
000070 3f 38 13 bf cb 2f d6 be 0d 59 0a bf b3 59 23 bf
       -0.575077 -0.41833338 -0.5404213 -0.63808745
000080 0a 88 7b 3e 01 2a 0a bf 8f 49 af bf 1a e8 dd 3d
       0.24563614 -0.5397034 -1.3694323 0.108352855
000090 85 fa 3a 3f 81 d5 01 3f 3a 1b 0c bf 85 c5 c4 3d
       0.7303851 0.50716406 -0.54729044 0.09607986
0000a0 a0 87 c6 3c 78 51 a7 3e a4 31 71 bd a7 2a e5 bd
       0.024234593 0.32679343 -0.05888523 -0.11189776
0000b0 a0 db 92 ba 14 21 e4 3e a1 e2 67 3d 59 58 bf be
       -0.0011204369 0.44556487 0.056612615 -0.3737209
0000c0 fe 62 0b bf e2 91 d1 3d a9 e5 f6 be 96 a9 89 be
       -0.54447925 0.10232903 -0.48222092 -0.26887196
0000d0 8e 57 c6 be 32 88 b3 3e ef 02 8d be 1f 8d b7 be
       -0.38738674 0.35064846 -0.275413 -0.35849854
0000e0 e6 ab 31 be 2e 53 8f 3e 8c 92 26 3f e5 ce 52 bf
       -0.1735073 0.2799315 0.6506736 -0.82346946
0000f0 9b c1 72 bf ce be 4f 3e 7b 75 7e be e7 7e 28 3f
       -0.9482667 0.2028763 -0.24849503 0.6581864
000100 41 30 7f 3e a0 20 b3 be e0 14 38 3e 8a 67 d8 3e
       0.24920751 -0.34985828 0.17976713 0.42266494
000110 bc 28 bc be 51 07 14 3f 75 63 8e bf 35 24 cb 3e
       -0.36749828 0.57823664 -1.1124102 0.3967606
000120 2a 85 13 3f 74 74 7c bd 5a 77 c3 3f 0d ee 15 bf
       0.5762507 -0.061634496 1.5270798 -0.5856636
000130 78 7f 9e 3e 71 fe ed bd 59 eb 48 3f 01 76 9a bf
       0.30956626 -0.116207965 0.7848411 -1.2067262
000140 e5 37 1b bf 00 4d 87 3f 33 e1 4b bf c7 3c 58 3f
       -0.60632163 1.0570374 -0.796405 0.8446774
000150 16 9d e0 3e 9a 80 38 3f 62 49 ea 3d 9f 8c 70 3e
       0.43869847 0.7207123 0.11439778 0.23491143
000160 67 75 cb be a9 a4 b1 bf d3 24 1c bf 97 6b 77 bf
       -0.39738008 -1.3878375 -0.6099369 -0.96648544
000170 44 af 10 3c 51 6a 7b bf 3c 61 07 bf 8d ee 6b bf
       0.008830849 -0.982091 -0.5288274 -0.92160875
000180 0e 13 b6 be 48 db 03 bf 8e 90 40 3f 1b 8f 69 3f
       -0.35561413 -0.5150647 0.7522057 0.91233987
000190 ce b7 80 3e 22 42 1c 3f 23 26 c9 3e 58 4a 67 3e
       0.25140232 0.6103841 0.39286909 0.22586954
0001a0 eb f4 93 3e 58 ff 90 be 5a fc 33 3f d2 58 64 3e
       0.28897795 -0.28319812 0.7030693 0.22299507
0001b0 d9 af e6 be fb ce 8b 3f d2 08 1e bf 7f f5 25 be
       -0.45056036 1.092254 -0.6173221 -0.1620693
0001c0 47 b9 ba be 41 2d 7b 3f e8 c4 e0 be d9 63 2e bf
       -0.3646948 0.98115927 -0.43900228 -0.68121105
0001d0 4c cf 03 3f 2a e1 89 bf e1 97 3b bf 93 a7 a0 3e
       0.51488185 -1.077184 -0.73278624 0.3137785
0001e0 6b 76 cd bd 67 64 3e 3f 68 2c d8 be 42 71 0c 3f
       -0.10032352 0.7437195 -0.4222138 0.5486032
0001f0 dc e9 3f be 75 8c d7 3e 07 61 eb 3e e9 7d ae 3e
       -0.18741554 0.42099348 0.45972463 0.34080437

agriscan_cnn_small_1/batch_normalization_4_1/batchnorm/mul f4 [128]
000000 db 18 51 41 62 e9 6a 41 83 8b 69 41 26 b9 71 41
       13.068568 14.681978 14.5965605 15.107702
000010 f1 29 6f 41 dd e9 88 41 d1 89 4f 41 00 6e 94 41
       14.94774 17.114191 12.971147 18.55371
000020 4b 96 5c 41 39 62 7c 41 d6 1e 61 41 7f ee 50 41
       13.786693 15.77398 14.070028 13.058227
000030 51 ba 89 41 2f 0d 89 41 be 63 93 41 2a 8f 88 41
       17.215975 17.131437 18.423702 17.069904
000040 f0 5c 85 41 a5 7d 9d 41 7e 68 89 41 ee 06 80 41
       16.67038 19.68635 17.176022 16.003384
000050 27 f5 8d 41 50 ae 78 41 92 cf 83 41 ea 59 69 41
       17.744703 15.542557 16.476353 14.584452
000060 3f a5 75 41 d9 f0 9a 41 4d 93 89 41 b4 90 7d 41
       15.352843 19.367601 17.196924 15.847828
000070 1e 5e 85 41 b5 f2 8a 41 df 8a 88 41 a4 02 06 41
       16.670956 17.36851 17.067808 8.375645
000080 f3 e1 7c 41 3c c9 78 41 d0 6f 4f 41 95 d1 6b 41
       15.805163 15.5491295 12.964798 14.7386675
000090 17 df 6d 41 4a 65 7c 41 41 32 7c 41 f2 71 8c 41
       14.866965 15.774729 15.762269 17.555637
0000a0 bc fe 75 41 46 8e 86 41 b2 c6 62 41 56 77 83 41
       15.374691 16.81947 14.17351 16.43327
0000b0 fa 5c 91 41 e3 f3 37 41 b1 76 86 41 5d cb 8c 41
       18.170399 11.497043 16.807955 17.599298
0000c0 75 37 85 41 4a 73 89 41 5d 40 88 41 a4 fd 96 41
       16.652079 17.181293 17.031427 18.873848
0000d0 07 0f 62 41 bb ba 91 41 12 36 61 41 97 ef 13 41
       14.128669 18.216177 14.075701 9.245994
0000e0 31 c6 66 41 61 80 74 41 fb 6d 8a 41 fa c1 92 41
       14.423387 15.2813425 17.303701 18.344715
0000f0 2e ee 41 41 7a 01 82 41 54 c2 7c 41 4d ea 62 41
       12.120649 16.250721 15.797443 14.182202
000100 f8 0b 72 41 b5 44 98 41 0b fc 91 41 10 1c 33 41
       15.127922 19.033548 18.248068 11.194351
000110 02 e5 6b 41 eb 93 70 41 b6 d7 54 41 2d 0a 8d 41
       14.74341 15.036113 13.302664 17.629969
000120 f6 7a 89 41 73 d9 87 41 41 90 6e 41 32 ae 94 41
       17.18504 16.981176 14.910218 18.585056
000130 19 e9 81 41 e3 47 8c 41 aa 86 8f 41 9c 34 71 41
       16.238817 17.5351 17.940754 15.075344
000140 da 09 76 41 56 a8 51 41 fa ce 8b 41 59 80 90 41
       15.377405 13.103598 17.476063 18.06267
000150 46 0f 72 41 3a 37 5a 41 9b e7 76 41 b9 65 83 41
       15.128729 13.638483 15.431544 16.42467
000160 00 a8 91 41 fe e7 8a 41 9e 5e 48 41 89 99 7e 41
       18.207031 17.363277 12.5231 15.912484
000170 16 08 89 41 91 2b 89 41 07 77 82 41 ac 31 8d 41
       17.128948 17.146273 16.308119 17.649254
000180 98 9f 34 41 c8 e1 40 41 d1 b7 61 41 6e e9 62 41
       11.288963 12.055122 14.107377 14.18199
000190 9e b5 6d 41 2c c5 62 41 c4 c8 52 41 7f 4e 6c 41
       14.85684 14.173138 13.174015 14.769164
0001a0 e5 65 68 41 77 c4 71 41 e2 42 77 41 ba 25 7c 41
       14.524877 15.110465 15.453829 15.759211
0001b0 52 aa 7a 41 d2 97 3b 41 1b 02 6d 41 bf e8 5e 41
       15.666582 11.7245655 14.813014 13.931823
0001c0 fa a3 76 41 94 7c 80 41 a5 b2 7e 41 5e da 93 41
       15.415033 16.06083 15.918614 18.481625
0001d0 a2 6e 81 41 cd b7 85 41 2e 19 71 41 b7 0f 58 41
       16.17902 16.714746 15.068647 13.503837
0001e0 25 b2 83 41 b7 98 67 41 33 9c 8d 41 88 92 76 41
       16.461985 14.474784 17.70127 15.410774
0001f0 53 54 99 41 63 89 38 41 cd 93 89 41 74 b1 72 41
       19.166174 11.533542 17.197168 15.1683235
